ModeloIA/ModeloAppMovil/V1/model_tomates.tflite (tflite, 60284 bytes, 9 tensors)

arith.constant1 f4 [1, 25]
0.078492895 0.059980527 -0.041886378 0.15337601 -0.098823644 -0.024670698 -0.2338609 -0.12483198
0.0909377 -0.16567522 -0.15462069 0.059962537 -0.05899592 -0.20576362 0.18305679 0.1671218
0.11823646 -0.20277005 0.17189048 -0.091266654 0.117701285 -0.12216127 -0.02498067 0.16703011
0.17613022
00000000: e2c0 a03d 24ae 753d 0d91 2bbd 9a0e 1d3e
00000010: 0d64 cabd 341a cabc 3b79 6fbe e9a7 ffbd
00000020: 8b3d ba3d c4a6 29be e354 1ebe 479b 753d
00000030: b5a5 71bd b3b3 52be 3d73 3b3e fa21 2b3e
00000040: f525 f23d f4a2 4fbe 0f04 303e 03ea babd
00000050: 5f0d f13d b02f fabd 43a4 ccbc f109 2b3e
00000060: 7b5b 343e

arith.constant15 f4 [1, 4]
0.54108465 0.17288843 0.15049365 1.233803
00000000: 8684 0a3f aa09 313e 021b 1a3e 42ed 9d3f

Const_1 f4 [1, 4]
20.598482 84.21638 24.895008 10.787453
00000000: b1c9 a441 c96e a842 fa28 c741 6899 2c41

arith.constant27 f4 [100, 4]
0.16539198 -0.097302005 -0.3530834 -0.06367586 0.16206567 -0.030763239 -0.30600244 -0.38008383
-0.07668554 0.07357336 0.23913182 0.122344926 0.08195138 -0.13560393 0.22717029 0.07352824
0.0026756637 0.1380525 -0.0793064 -0.12692632 -0.23504879 0.18113327 -0.0648485 0.06588167
0.31552073 0.17115179 -0.12770301 -0.027317747 -0.11726077 -0.005325546 0.09038878 -0.13092433
-0.12948942 0.0034321568 0.054160375 -0.32388693 0.034244154 -0.17707999 0.0044300766 0.08250578
0.1302237 -0.1290482 -0.11827351 -0.19051783 -0.18783794 0.060000762 -0.251287 -0.116054274
0.09781676 -0.0327139 -0.09500939 -0.16497013 -0.02816801 -0.050137278 0.091212645 -0.2150994
-0.078998916 -0.19802243 -0.12924518 -0.1246593 0.17124572 -0.24279353 0.20301661 -0.12321874
-0.08104755 -0.005706438 -0.0719641 0.1768468 -0.21114205 0.016418546 -0.070322685 -0.13079283
0.30386516 -0.14652815 0.22350423 0.20348147 -0.08103494 0.05191828 0.2583656 0.1818914
0.04022516 -0.047317915 -0.16490746 0.00055118 -0.06948535 -0.1966235 -0.08748531 0.1712594
0.18945895 0.059190143 0.011427181 0.2692228 0.018441048 -0.24611412 0.18776667 0.1888659
-0.18527174 0.053073414 -0.09288059 0.013809948 0.22103503 -0.092860475 -0.24409878 0.098803714
-0.2854312 0.08513246 -0.0591796 -0.27077273 -0.20340368 0.12864673 -0.11585583 -0.15549451
0.30020884 0.16778405 -0.056838144 0.17329407 -0.0038073617 -0.22046025 -0.060565908 -0.04714252
-0.15545256 -0.121051565 -0.26332164 0.29693383 0.23934682 0.05965367 0.07994326 0.15046526
-0.13187654 -0.10039671 -0.076116085 -0.22440799 -0.30746847 0.18140443 0.08925859 -0.02485926
0.123378165 -0.16141471 0.19690503 -0.0063810176 0.10637038 -0.054243527 0.14264587 -0.21152419
-0.06596826 0.09359861 0.016510755 -0.22840197 0.07971122 -0.14023103 -0.038048238 -0.09544148
-0.08415918 0.06567379 -0.17306554 0.11981659 -0.14573014 0.2507761 -0.12239305 -0.20657597
0.19996034 -0.026218133 0.22357132 0.08955033 0.10349862 0.16428193 -0.11125326 -0.06040878
0.10652704 0.13449225 -0.2374995 0.0910906 0.087783135 -0.15630569 0.30977398 0.11195721
0.2346767 0.033180896 -0.039492063 0.15362027 -0.06748104 -0.31717792 -0.034178127 -0.07180903
0.161302 -0.14955546 -0.21023783 -0.08442056 0.18032487 0.06507519 0.039850473 0.10944147
0.1495159 0.12474883 -0.07912706 0.0666205 0.25527728 0.028267246 -0.06435039 -0.20082973
0.029448481 0.0005095617 -0.34010696 -0.04428661 0.05961548 0.23570086 -0.24080804 0.14221756
-0.16208325 -0.24766937 0.13055366 0.21309464 -0.09089032 -0.2173782 0.11308877 0.044660367
-0.14573203 0.17622633 0.09736394 0.13603899 0.099205956 0.25042486 -0.054159224 -0.03707533
-0.12546495 -0.10300809 -0.20709305 -0.22678167 0.16549289 -0.14764439 0.13213967 0.038043875
0.116432756 -0.09738731 -0.14736916 0.10179837 -0.14413998 -0.20321345 0.098806895 -0.07709768
-0.01842065 -0.19060476 -0.077678666 0.1696955 0.27788684 -0.026549473 -0.26876226 -0.047735598
0.25924495 0.21677168 -0.18737304 0.1962428 0.055332765 -0.09421575 -0.18595599 0.12334504
00000000: 845c 293e 4646 c7bd 59c7 b4be 7d68 82bd
00000010: 8bf4 253e 3003 fcbc 5aac 9cbe 599a c2be
00000020: 4f0d 9dbd a1ad 963d f9de 743e fa8f fa3d
00000030: 20d6 a73d c2db 0abe 549f 683e f995 963d
00000040: 305a 2f3b a25d 0d3e 656b a2bd f9f8 01be
00000050: a1b0 70be 007b 393e 4acf 84bd f8ec 863d
00000060: ef8b a13e 6a42 2f3e 94c4 02be 78c9 dfbc
00000070: 6a26 f0bd eb81 aebb c11d b93d 0711 06be
00000080: e098 04be 09ee 603b 45d7 5d3d 82d4 a5be
00000090: 9943 0c3d 7554 35be 2d2a 913b caf8 a83d
000000a0: 5d59 053e 3625 04be 6239 f2bd 1b17 43be
000000b0: 9758 40be 5cc3 753d b1a8 80be ddad edbd
000000c0: 2754 c83d 03ff 05bd 4894 c2bd eeed 28be
000000d0: 99c0 e6bc bf5c 4dbd b2cd ba3d 0443 5cbe
000000e0: 2fca a1bd 64c6 4abe d958 04be 604d ffbd
000000f0: 0a5b 2f3e de9e 78be 96e3 4f3e 1b5a fcbd
00000100: 42fc a5bd 12fd babb ea61 93bd 5417 353e
00000110: 9f35 58be 3080 863c 5705 90bd 8eee 05be
00000120: 3794 9b3e 7a0b 16be 4bde 643e 725d 503e
00000130: a6f5 a5bd 43a8 543d 7f48 843e bd41 3a3e
00000140: 23c3 243d 6ed0 41bd 80dd 28be 107d 103a
00000150: 564e 8ebd ac57 49be 802b b3bd a05e 2f3e
00000160: 8701 423e 5d71 723d 1239 3b3c 92d7 893e
00000170: ae11 973c 5705 7cbe e845 403e 1066 413e
00000180: e0b7 3dbe 8263 593d 2e38 bebd 1f43 623c
00000190: 0257 623e a22d bebd 08f5 79be 9a59 ca3d
000001a0: 0a24 92be ed59 ae3d 4f66 72bd b9a2 8abe
000001b0: 0e49 50be f8bb 033e d245 edbd f439 1fbe
000001c0: f9b4 993e 95cf 2b3e 1dcf 68bd 0074 313e
000001d0: ee84 79bb 55c0 61be f513 78bd 8418 41bd
000001e0: f52e 1fbe e2e9 f7bd 18d2 86be b607 983e
000001f0: 5517 753e 6857 743d 4bb9 a33d 9113 1a3e
00000200: a50a 07be ca9c cdbd c0e2 9bbd 35cb 65be
00000210: 826c 9dbe 15c2 393e 35cd b63d a6a5 cbbc
00000220: b1ad fc3d e649 25be 79a1 493e db17 d1bb
00000230: b7d8 d93d 762e 5ebd c211 123e cc99 58be
00000240: 5e1a 87bd a1b0 bf3d 9041 873c 35e2 69be
00000250: a33f a33d b998 0fbe 78d8 1bbd d376 c3bd
00000260: a65b acbd fb7f 863d 1838 31be 6662 f53d
00000270: 483a 15be ba65 803e 35a9 fabd a788 53be
00000280: 67c2 4c3e 69c7 d6bc e1ef 643e 2a66 b73d
00000290: 16f7 d33d 8639 283e c0d8 e3bd 326f 77bd
000002a0: d92a da3d 56b8 093e 1233 73be b58d ba3d
000002b0: a5c7 b33d 990e 20be b29a 9e3e d249 e53d
000002c0: 174f 703e b1e8 073d 6ec2 21bd a24e 1d3e
000002d0: 8033 8abd 2565 a2be 5dfe 0bbd 9d10 93bd
000002e0: 5a2c 253e 1125 19be 9648 57be b0e4 acbd
000002f0: 15a7 383e 2446 853d 403a 233d d922 e03d
00000300: b21a 193e 517c ff3d 5e0d a2bd 5470 883d
00000310: b4b3 823e b690 e73c 23ca 83bd 4fa6 4dbe
00000320: f13d f13c 1b94 053a 8022 aebe e065 35bd
00000330: 5d2f 743d 915b 713e 6296 76be 7ba1 113e
00000340: 27f9 25be 0a9d 7dbe dcaf 053e 7b35 5a3e
00000350: b424 babd 6498 5ebe 169b e73d caed 363d
00000360: c73a 15be ad74 343e bf66 c73d ce4d 0b3e
00000370: 7e2c cb3d b037 803e 10d6 5dbd 4ddc 17bd
00000380: e279 00be e8f5 d2bd 3310 54be 7439 68be
00000390: f876 293e 1730 17be 9f4f 073e e5d3 1b3d
000003a0: 4c74 ee3d ff72 c7bd f1e7 16be aa7b d03d
000003b0: 6e99 13be 3017 50be 455b ca3d 63e5 9dbd
000003c0: e7e6 96bc e52d 43be fe15 9fbd a8c4 2d3e
000003d0: 2f47 8e3e 487e d9bc 359b 89be 6786 43bd
000003e0: c1bb 843e 65f9 5d3e b8de 3fbe dff3 483e
000003f0: 9ca4 623d 30f4 c0bd 3f6b 3ebe 539c fc3d

arith.constant28 f4 [100, 25]
0.18063518 -0.061229505 0.09288788 -0.046413247 0.05821043 -0.20679967 0.051060405 -0.02054371
0.3338149 -0.007152637 0.32591838 0.11238275 0.28594634 0.22084674 -0.045880146 -0.050775897
0.17953143 -0.14737432 0.062273704 -0.31947786 -0.3102453 0.02142741 -0.1961771 -0.19982347
-0.14898935 0.22502641 0.1038338 -0.07437287 -0.19104326 -0.24511503 -0.030844128 -0.055979136
0.12675267 -0.05436097 -0.1138076 -0.019361109 0.3746778 -0.22463018 0.026064107 0.021173822
-0.13087851 -0.13258807 -0.08052097 1.19781835e-05 -0.25245807 0.038759198 -0.10581192 0.16281387
-0.07897236 0.042608995 0.016831107 0.015732922 0.03909558 0.14350213 -0.12467237 -0.0066223964
-0.042178452 -0.02903284 0.091517285 -0.035326313 0.071143895 0.052668132 0.03188921 0.0743662
-0.050373178 0.038875666 0.15412901 0.0114831645 0.028154714 0.05968596 0.13887402 0.18664217
-0.106951594 0.09153594 -0.11375609 0.14776166 -0.04701959 0.23908748 -0.08185018 -0.0044765463
0.19980618 0.10275939 -0.16420624 -0.013764106 0.1694968 -0.038780957 0.045235757 0.044901755
0.10373668 -0.1571981 0.030852232 -0.14919722 -0.0076524257 0.15865749 0.090045504 0.02542954
-0.16898534 -0.21322863 0.063196965 -0.0899433 0.04895504 -0.09477606 -0.16296168 -0.09978266
-0.23756371 -0.019559188 0.22929047 0.044821028 -0.05579419 -0.018564064 -0.16220735 0.20849329
-0.14650515 -0.06274257 -0.0646017 -0.037567377 -0.109168224 -0.08060701 0.009758551 -0.039804623
-0.013577594 -0.20131579 -0.025132045 -0.1442352 0.09473563 0.003861027 0.076012105 -0.063841596
0.07026722 0.035081163 0.022025159 0.09154217 -0.030652693 0.022396963 -0.061475042 0.02966659
0.014715843 0.18652698 -0.19256464 0.01225628 -0.022133516 0.10428768 -0.041807402 -0.041010696
0.024502113 0.010620403 -0.034741845 -0.058989655 0.18059178 -0.0323876 0.042142745 0.0031557959
0.19720423 0.085079275 0.1105916 0.09560931 -0.15836595 0.31516954 0.3996487 -0.122774184
0.072746456 -0.060586523 0.02026859 0.21815217 -0.12504211 0.111375034 0.19983003 -0.099735774
0.07527932 -0.31729993 -0.14653112 -0.058256336 0.065014854 0.0040055476 -0.02144771 -0.083744615
-0.009087 0.09670045 0.042124406 -0.041945215 0.062122423 -0.10934742 0.2114112 -0.019038755
-0.18896146 0.033090536 0.040686496 -0.04172615 -0.13571401 0.08314575 -0.07963902 0.14407845
0.07911639 -0.028275369 -0.1722228 0.1112383 -0.016781736 -0.24983023 0.06684613 0.18278645
0.10295222 0.099009804 -0.052216154 0.07713462 0.16710737 0.3228997 0.178993 -0.031997737
-0.16714834 -0.052599777 -0.0466762 -0.031543575 -0.12832728 -0.15963675 0.1870695 -0.02660953
0.083988085 -0.22314881 -0.12854102 -0.013342896 0.13294949 -0.018544007 0.061956342 0.010519933
-0.00975552 0.012194913 0.19518296 0.14357796 -0.11886923 0.31908196 0.038905237 0.12683858
-0.044585284 0.017201284 -0.054096088 0.07978291 -0.09627512 0.07906016 0.07325937 -0.091598056
0.27403226 0.21018657 -0.12687469 -0.14903377 0.14433719 0.09454742 -0.00959774 -0.090668395
0.12688592 0.09832014 0.025140218 0.041955933 -0.10141966 0.0071344133 0.15582319 0.0077985334
00000000: 6ef8 383e cacb 7abd 003c be3d d11b 3ebd
00000010: 0f6e 6e3d 4bc3 53be b724 513d 484b a8bc
00000020: c9e9 aa3e ab60 eabb c6de a63e ed28 e63d
00000030: 8f67 923e a625 623e d2ec 3bbd 63fa 4fbd
00000040: 16d7 373e 4be9 16be b612 7f3d 9a92 a3be
00000050: 79d8 9ebe 8988 af3c a6e2 48be 869e 4cbe
00000060: aa90 18be 536d 663e d1a6 d43d ce50 98bd
00000070: d8a0 43be 6fff 7abe d3ac fcbc 614a 65bd
00000080: 74cb 013e 9ca9 5ebd f613 e9bd 309b 9ebc
00000090: c5d5 bf3e 7405 66be 6584 d53c b974 ad3c
000000a0: 0405 06be 2bc5 07be 2ee8 a4bd e8f5 4837
000000b0: 2f42 81be f7c1 1e3d ebb3 d8bd aeb8 263e
000000c0: 43bc a1bd c586 2e3d 64e1 893c 54e2 803c
000000d0: b022 203d 39f2 123e 3a54 ffbd b000 d9bb
000000e0: 50c3 2cbd 47d6 edbc 6a6d bb3d 53b2 10bd
000000f0: e4b3 913d 8aba 573d 439e 023d 4e4d 983d
00000100: 1b54 4ebd 173c 1f3d ffd3 1d3e e223 3c3c
00000110: b7a4 e63c 4479 743d fe34 0e3e 201f 3f3e
00000120: 7009 dbbd 3277 bb3d f4f8 e8bd d54e 173e
00000130: 9d97 40bd 59d3 743e 11a1 a7bd feaf 92bb
00000140: fe99 4c3e 8473 d23d ae25 28be d882 61bc
00000150: 9290 2d3e c8d8 1ebd 2149 393d e7ea 373d
00000160: e573 d43d 8af8 20be d2bd fc3c 28c7 18be
00000170: 33c1 fabb 1c77 223e c769 b83d 9c51 d03c
00000180: 7e0a 2dbe 9b58 5abe 696d 813d 3134 b8bd
00000190: 1485 483d f319 c2bd 6ddf 26be da5a ccbd
000001a0: e743 73be 973a a0bc 1fcb 6a3e 4196 373d
000001b0: 7388 64bd aa13 98bc af19 26be 447f 553e
000001c0: 7205 16be 2d7f 80bd e54d 84bd 40e0 19bd
000001d0: 9793 dfbd 4a15 a5bd 54e2 1f3c 2c0a 23bd
000001e0: 8f74 5ebc ba25 4ebe b8e1 cdbc 64b2 13be
000001f0: c104 c23d 4909 7d3b 3cac 9b3d 62bf 82bd
00000200: 43e8 8f3d 44b1 0f3d 1b6e b43c 767a bb3d
00000210: 5b1b fbbc d679 b73c 41cd 7bbd 5907 f33c
00000220: b81a 713c ee00 3f3e aa2f 45be 90ce 483c
00000230: 5951 b5bc c794 d53d 3d3e 2bbd d5fa 27bd
00000240: a8b8 c83c 3301 2e3c 774d 0ebd 239f 71bd
00000250: 0ded 383e dca8 04bd df9d 2c3d 78d1 4e3b
00000260: e8ef 493e 0b3e ae3d d97d e23d d0ce c33d
00000270: af2a 22be e75d a13e c19e cc3e 0871 fbbd
00000280: 18fc 943d 9329 78bd 500a a63c 4863 5f3e
00000290: 0a0b 00be 9818 e43d 3ea0 4c3e 4542 ccbd
000002a0: 0b2c 9a3d 2375 a2be 410c 16be 329e 6ebd
000002b0: 8226 853d f840 833b 1cb3 afbc 4c82 abbd
000002c0: a4e1 14bc e30a c63d a48a 2c3d bfce 2bbd
000002d0: 1574 7e3d 8af1 dfbd 2d7c 583e 2af7 9bbc
000002e0: 1d7f 41be f189 073d e2a6 263d 0ae9 2abd
000002f0: 9df8 0abe 5248 aa3d c819 a3bd 4d89 133e
00000300: c607 a23d bfa1 e7bc 2c5b 30be e8d0 e33d
00000310: da79 89bc 7fd3 7fbe a0e6 883d 5f2c 3b3e
00000320: 9dd8 d23d a7c5 ca3d 9be0 55bd c1f8 9d3d
00000330: 321e 2b3e 1c53 a53e f149 373e 0f10 03bd
00000340: ef28 2bbe dd72 57bd 8b2f 3fbd d633 01bd
00000350: 3a68 03be d177 23be 268f 3f3e 3bfc d9bc
00000360: f201 ac3d 1f81 64be 42a0 03be 299c 5abc
00000370: e923 083e 9ae9 97bc efc5 7d3d cc5b 2c3c
00000380: 9ed5 1fbc 2ccd 473c 0bde 473e 1a06 133e
00000390: b671 f3bd b65e a33e 195b 1f3d f9e1 013e
000003a0: 0f9f 36bd b5e9 8c3c dc93 5dbd 3965 a33d
000003b0: e42b c5bd 4bea a13d 0209 963d c397 bbbd
000003c0: f54d 8c3e 263b 573e 70eb 01be 4f9c 18be
000003d0: 21cd 133e 14a2 c13d d73f 1dbc 5ab0 b9bd
000003e0: 62ee 013e 125c c93d dcf2 cd3c fcd9 2b3d
000003f0: 1cb5 cfbd ccc7 e93b 1d90 1f3e d78a ff3b

PrediccionTomates_Completo_1/Cerebro_LSTM_Apilado_1/lstm_8_1/while/lstm_cell_1/add_1/ReadVariableOp f4 [100]
0.035795595 0.047316693 0.0212834 0.008560302 0.0045402925 0.057892654 0.01813227 -0.0074812877
0.074676916 0.020607693 0.012493984 0.13120528 0.039770257 -0.0010412901 0.018707123 0.022936659
-0.005972049 0.03659285 0.039521016 0.05406098 0.0033321362 0.041486014 -0.027372533 -0.02809498
-0.038447384 1.0125717 1.0970321 1.0130707 0.9825435 1.0271115 1.0574876 0.99760896
0.9823093 1.0697758 1.0109742 0.98777765 1.1319134 1.0400596 0.98432165 1.0191178
1.0230539 0.9932998 1.047681 1.050941 1.0551304 1.0002592 1.0459675 0.94784963
0.9701153 0.9541939 -0.026082378 0.060392275 0.038693372 0.018213265 0.053215764 -0.015702782
0.053893417 0.086796746 0.11009631 0.05693847 0.0658195 0.113864556 0.10341192 -0.06598907
0.12800506 0.01740553 0.021452643 0.041434124 -0.10644958 0.07425159 0.052055415 0.08595832
-0.03283047 -0.030089855 -0.05124442 0.030067153 0.059789784 0.01536132 -0.0043723416 0.008005402
0.05698475 0.03420999 -0.008976031 0.12897831 0.014151731 0.0034866927 0.1269105 0.040159043
0.001107199 0.031729035 0.012997609 -0.008650098 0.045531467 0.036376853 0.053973973 0.008766579
0.059057076 -0.02063311 -0.027762132 -0.03844177
00000000: 679e 123d 26cf 413d 865a ae3c 8240 0c3c
00000010: bcc6 943b d920 6d3d 208a 943c 9725 f5bb
00000020: 36f0 983d 77d1 a83c 91b3 4c3c ad5a 063e
00000030: 23e6 223d e67b 88ba ae3f 993c a9e5 bb3c
00000040: 2eb1 c3bb 62e2 153d cae0 213d 0c6f 5d3d
00000050: f85f 5a3b 3ded 293d 5d3c e0bc 7227 e6bc
00000060: 017b 1dbd f39b 813f 8c6b 8c3f 4dac 813f
00000070: f987 7b3f 6478 833f c15b 873f 4d63 7f3f
00000080: 9f78 7b3f 6aee 883f 9a67 813f ffde 7c3f
00000090: 8ae2 903f ac20 853f 81fc 7b3f 7472 823f
000000a0: 6ef3 823f e548 7e3f 691a 863f 3c85 863f
000000b0: 830e 873f 7e08 803f 43e2 853f 46a6 723f
000000c0: 7a59 783f 0d46 743f b6aa d5bc e45d 773d
000000d0: f17c 1e3d fc33 953c c6f8 593d 1fa3 80bc
000000e0: 58bf 5c3d 7ec2 b13d 2d7a e13d 5038 693d
000000f0: 60cc 863d d231 e93d a1c9 d33d 4725 87bd
00000100: c213 033e 0b96 8e3c 74bd af3c d4b6 293d
00000110: 3d02 dabd 3811 983d 0f38 553d ea0a b03d
00000120: 3e79 06bd 007f f6bc abe5 51bd 644f f63c
00000130: 22e6 743d 0cae 7b3c dc45 8fbb 1729 033c
00000140: d768 693d c61f 0c3d 3410 13bc e412 043e
00000150: a9dc 673c ff80 643b d3f4 013e cf7d 243d
00000160: 6f1f 913a 4ef6 013d ecf3 543c 24b9 0dbc
00000170: 347f 3a3d e5ff 143d d013 5d3d b3a1 0f3c
00000180: d5e5 713d c506 a9bc 696d e3bc 1e75 1dbd

arith.constant32 f4 [100, 25]
0.21152465 0.03893735 0.045319416 0.095521584 -0.018731836 0.115657605 0.27040806 0.16222654
-0.024023384 0.12913045 -0.062270176 0.25236708 -0.12125133 -0.19161984 0.045094416 0.0035514191
0.07749641 -0.022550318 0.1840176 -0.3325399 -0.2395029 -0.121315666 -0.047492955 -0.21590391
0.087041 0.23870133 0.20922868 -0.17703487 -0.05785977 -0.23355974 0.22699106 0.007917703
-0.1038937 -0.08675954 0.12386376 0.099953175 0.16120085 -0.17692144 -0.20876792 0.12389021
0.08508938 -0.045030415 0.036441077 0.10119863 0.14967042 -0.13078323 -0.01648421 0.1508405
0.12049804 -0.077498786 0.0006137324 0.008781752 -0.043129478 0.036922388 0.08913399 -0.1703829
0.0012185045 0.047708534 -0.230393 0.14146875 -0.20179434 -0.08395627 -0.09338759 0.19390431
-0.10526358 -0.09890081 -0.047441576 -0.13348028 0.014564414 -0.23898494 0.015836881 -0.042205554
-0.123807974 0.19790162 0.019397752 -0.093339436 0.12532966 0.19167018 0.07995655 0.02210009
-0.082076155 0.12856252 0.0763249 0.11036474 -0.06946606 -0.013396243 -0.0700144 -0.056903288
0.040380504 -0.11813823 0.09281207 -0.14536189 -0.10022316 -0.013610068 -0.22532362 0.06505265
-0.22902402 0.045157883 -0.1226512 -0.11639743 0.084680535 0.20198545 -0.113702394 0.00606114
-0.21138212 0.04917381 -0.0048893914 -0.13749573 -0.1802619 -0.14470476 0.17321573 -0.047765877
-0.19708842 -0.22119765 -0.10984737 -0.09652374 -0.055329517 0.10606339 0.039297093 -0.07609964
0.010455163 -0.15476182 -0.060623277 0.13564773 -0.21418768 0.09408424 -0.011423073 0.04384543
-0.15971807 -0.12764132 0.18702866 -0.13291132 -0.034205675 0.021578062 -0.17566918 -0.06337809
0.16018853 -0.23596478 -0.20171854 0.07294263 -0.12063442 -0.22901237 0.13442308 0.15947385
-0.06973866 0.05384282 -0.018991347 -0.1847242 -0.15149067 -0.060354806 0.21000336 0.0439421
-0.0319398 0.20802648 -0.15275429 -0.24649505 0.3219069 -0.14447151 0.21744704 -0.089932136
0.07014635 0.08430257 0.110337235 0.14111601 -0.09230122 0.05412935 0.121441714 -0.12873042
0.1292136 -0.03080108 0.3191201 -0.12973596 -0.06164902 0.010125023 0.008462764 0.04451795
0.0014691306 -0.13410375 0.104901254 -0.12119775 0.00038832097 -0.087006666 -0.022276057 -0.11372828
-0.17614336 -0.065374985 -0.19489425 0.1262869 -0.22531953 -0.047548886 0.08828879 -0.10215673
-0.20652197 0.06496166 0.16687888 -0.12209104 0.021820983 0.13290337 0.049172476 -0.10010245
0.045219835 0.055251766 -0.12457634 0.12852693 -0.2370169 0.13598742 -0.18855852 0.10204975
-0.019925948 -0.023913909 0.23531267 -0.10926124 0.016340613 -0.2726316 0.029664611 0.04030315
-0.07335326 0.10441438 -0.12406101 -0.018718602 0.12621696 0.08398559 0.18869624 -0.10782827
0.12064357 0.12715802 -0.04315417 -0.2413471 -0.13011305 -0.0016080479 -0.21874446 -0.18842107
-0.076046824 0.17304534 -0.0016256506 -0.074955955 -0.078340374 -0.14543372 0.07571927 -0.20407976
-0.15344593 0.08451619 -0.081449315 0.10113597 -0.19463815 -0.2392564 0.16311501 -0.059567865
-0.08458819 0.063118905 -0.108490594 -0.19398877 -0.093483865 -0.032525327 -0.14945236 -0.2205432
00000000: eb99 583e c57c 1f3d daa0 393d d2a0 c33d
00000010: 8273 99bc e5dd ec3d ed72 8a3e b71e 263e
00000020: b0cc c4bc c63a 043e 030f 7fbd 4236 813e
00000030: 9e52 f8bd fe37 44be ecb4 383d edbe 683b
00000040: 70b6 9e3d 72bb b8bc 1c6f 3c3e ab42 aabe
00000050: 4040 75be 5974 f8bd f987 42bd ea15 5dbe
00000060: 8d42 b23d 1f6e 743e 0b40 563e a148 35be
00000070: 5efe 6cbd 492a 6fbe 5870 683e 41b9 013c
00000080: 38c6 d4bd fcae b1bd 48ac fd3d 40b4 cc3d
00000090: d611 253e e52a 35be 42c7 55be 27ba fd3d
000000a0: 5743 ae3d d071 38bd 3d43 153d 3a41 cf3d
000000b0: 3443 193e 0aec 05be e509 87bc ef75 1a3e
000000c0: adc7 f63d afb7 9ebd e2e2 203a 56e1 0f3c
000000d0: 89a8 30bd ee3b 173d e28b b63d db78 2ebe
000000e0: 3ab6 9f3a 066a 433d 25ec 6bbe 2fdd 103e
000000f0: 2da3 4ebe 44f1 abbd fe41 bfbd da8e 463e
00000100: 6f94 d7bd 828c cabd 1952 42bd 0eaf 08be
00000110: 949f 6e3c 78b8 74be 59bc 813c bbdf 2cbd
00000120: 098f fdbd b9a6 4a3e 09e8 9e3c bf28 bfbd
00000130: 6b56 003e 3045 443e 42c0 a33d 3f0b b53c
00000140: 8b17 a8bd e5a5 033e 3b50 9c3d e906 e23d
00000150: 3944 8ebd ea7b 5bbc b663 8fbd 6c13 69bd
00000160: 0766 253d 75f2 f1bd 4114 be3d bfd9 14be
00000170: cd41 cdbd c3fc 5ebc 3cbb 66be 533a 853d
00000180: 4685 6abe 79f7 383d 8d30 fbbd c761 eebd
00000190: fd6c ad3d 46d5 4e3e cddc e8bd 879c c63b
000001a0: 8e74 58be 7a6a 493d 3037 a0bb aecb 0cbe
000001b0: 9396 38be 7c2d 14be 775f 313e 27a6 43bd
000001c0: 8cd1 49be a381 62be a8f7 e0bd 3dae c5bd
000001d0: 34a1 62bd c337 d93d fdf5 203d 21da 9bbd
000001e0: 224c 2b3c e279 1ebe 1d50 78bd 3de7 0a3e
000001f0: 0454 5bbe 3daf c03d d727 3bbc 4497 333d
00000200: 228d 23be 68b4 02be 7184 3f3e e819 08be
00000210: 401b 0cbd 7ac4 b03c 9fe2 33be 5fcc 81bd
00000220: 7608 243e c0a0 71be 4e8f 4ebe f262 953d
00000230: 2e0f f7bd 3882 6abe 34a6 093e 1d4d 233e
00000240: 24d3 8ebd 4a8a 5c3d be93 9bbc 5728 3dbe
00000250: 5f20 1bbe 9a36 77bd 1f0b 573e a2fc 333d
00000260: 4fd3 02bd e504 553e 9f6b 1cbe 3369 7cbe
00000270: fbd0 a43e 57f0 13be 70aa 5e3e 572e b8bd
00000280: e4a8 8f3d d3a6 ac3d 7df8 e13d b780 103e
00000290: 6c08 bdbd bdb6 5d3d 6fb6 f83d e8d1 03be
000002a0: 9250 043e 8c52 fcbc b663 a33e 81d9 04be
000002b0: af83 7cbd 6de3 253c 68a7 0a3c 7458 363d
000002c0: d88f c03a 7e52 09be 78d6 d63d 8736 f8bd
000002d0: 8f97 cb39 8d30 b2bd 477c b6bc 5fea e8bd
000002e0: ed5e 34be 52e3 85bd 5c92 47be 5a51 013e
000002f0: 2aba 66be 9fc2 42bd c1d0 b43d 8c37 d1bd
00000300: 7f7a 53be 9e0a 853d 4ce2 2a3e de0a fabd
00000310: ebc1 b23c d217 083e 1469 493d 8302 cdbd
00000320: 6f38 393d ad4f 623d e121 ffbd 909c 033e
00000330: 8fb4 72be 4940 0b3e 7c15 41be 76ff d03d
00000340: be3b a3bc 1ae7 c3bc cef5 703e 5bc4 dfbd
00000350: c0dc 853c 5e96 8bbe 3303 f33c ea14 253d
00000360: 3c3a 96bd 35d7 d53d b313 febd c157 99bc
00000370: 053f 013e a300 ac3d 9639 413e 11d5 dcbd
00000380: fa13 f73d b635 023e 6dc2 30bd b223 77be
00000390: 5b3c 05be 22c5 d2ba 8cfe 5fbe 74f1 40be
000003a0: 70be 9bbd cc32 313e c813 d5ba 8282 99bd
000003b0: eb70 a0bd 94ec 14be b412 9b3d 49fa 50be
000003c0: ee20 1dbe d316 ad3d e6ce a6bd 6020 cf3d
000003d0: 394f 47be a1ff 74be 9f07 273e 6ffd 73bd
000003e0: 933c adbd 7c44 813d 5130 debd fea4 46be
000003f0: 7874 bfbd 4739 05bd 0a0a 19be 14d6 61be

arith.constant33 f4 [100, 25]
0.16472225 -0.15649238 0.0791078 -0.16249779 0.11382163 0.07372792 -0.09778406 -0.07384748
0.015386616 0.07055349 -0.11649431 -0.038876828 -0.059077542 0.081635624 0.15461029 0.09393732
0.113481194 -0.048626654 -0.09025305 -0.09406501 -0.082670845 0.013469821 0.2072212 0.028707178
0.054332096 0.030244136 0.06989544 0.1826602 0.03392333 0.10778116 0.09561372 -0.18921234
-0.05586972 -0.041090973 -0.09320359 -0.07131523 -0.06329878 -0.049062323 0.08308365 -0.0053050867
-0.06544289 -0.01713238 -0.19356045 -0.15657313 0.051849052 -0.18588232 0.12374155 0.09385776
-0.08668304 -0.00010714955 0.05273007 -0.25255576 -0.17037266 0.14758961 -0.001032337 0.17569752
-0.091830775 0.03773656 -0.070147604 0.056208927 0.09204217 -0.10315676 -0.028865276 0.13293259
-0.12133447 -0.2319121 0.007113858 -0.024448624 -0.081071824 0.05455326 0.13410394 0.066021174
0.08964067 0.040894262 -0.14030503 0.10618808 0.14134012 0.006177825 -0.13933817 0.040548533
0.109596774 -0.1685601 0.043003913 -0.09857993 0.04537269 0.0031212864 -0.053639043 -0.12904212
0.06849889 0.10721608 -0.24630077 -0.0920236 0.153168 0.05850423 0.112913914 -0.11978729
-0.024472013 0.02789275 -0.25203165 0.16388416 0.033200663 0.029415622 -0.013687179 -0.12743878
0.028270608 -0.07994627 0.016948467 -0.11968639 -0.013807745 0.08425311 0.053903192 0.18309234
0.025761327 0.0025760238 -0.092742406 0.13476287 -0.075722024 -0.02219671 0.1121591 -0.056992434
-0.19089274 -0.14573844 0.053085066 -0.087239295 -0.032435533 -0.02683894 -0.06416004 -0.06631108
0.09005429 -0.05722836 -0.11324181 0.009066989 -0.27920946 -0.08296083 -0.2758442 -0.068562016
-0.27898207 -0.17692028 0.15800819 0.07842957 0.18535896 -0.01635107 -0.012646032 -0.027674785
0.018444011 -0.058992714 -0.12821281 -0.051477555 -0.087034985 -0.13110973 0.14272223 0.11549541
-0.0005155496 0.09557478 0.17769776 -0.10343366 0.13836856 -0.12972961 0.17197317 -0.030819628
0.05521296 0.23271899 -0.012769424 0.12991305 0.037084147 0.15182371 0.060853902 -0.11297578
0.13757758 0.05461002 0.026723824 -0.0118350405 0.05272282 0.10599015 0.1616773 0.05247299
-0.10360607 0.02429784 -0.04477953 0.026293319 -0.08724145 -0.12546651 0.107891925 0.035014324
-0.25496125 0.0058979024 0.12226497 -0.1416306 0.043918375 -0.03963156 -0.08965244 -0.15765892
-0.1648679 0.046317615 -0.019987714 0.05902634 0.0924706 -0.105532356 -0.055971332 0.08124001
0.0028382887 0.11635743 0.22823408 -0.0030801622 0.083549425 0.009162482 -0.2174956 -0.13140912
0.06897999 0.06063828 -0.028568782 0.016698033 0.029952887 0.057106923 -0.07287004 0.056553066
0.074489586 -0.16255762 0.2551174 0.12442962 -0.01200817 -0.16387334 0.06471356 0.04156487
-0.024356417 -0.076831795 -0.2797035 0.11843966 0.024614703 -0.04515522 -0.11238764 0.0818151
0.0464887 0.051642984 0.13428245 -0.067880094 -0.13752382 -0.10141453 0.061061654 -0.17571883
-0.1281249 -0.061471414 -0.06513496 0.054384768 0.021654556 -0.23532532 -0.02352533 0.07273386
0.06290688 -0.046907883 -0.0873538 0.05621982 0.07187666 -0.10909577 0.10401865 -0.14512631
00000000: f3ac 283e 8a3f 20be 4503 a23d d265 26be
00000010: 511b e93d aafe 963d 0243 c8bd 593d 97bd
00000020: 2518 7c3c 597e 903d 9294 eebd 4f3d 1fbd
00000030: 4bfb 71bd 9430 a73d 2952 1e3e 3662 c03d
00000040: d468 e83d be2c 47bd 97d6 b8bd 28a5 c0bd
00000050: 554f a9bd 86b0 5c3c cb31 543e 512b eb3c
00000060: 558b 5e3d 8dc2 f73c 5725 8f3d 470b 3b3e
00000070: 31f3 0a3d 5ebc dc3d 20d1 c33d e1c0 41be
00000080: a6d7 64bd 024f 28bd 86e1 bebd b80d 92bd
00000090: caa2 81bd 93f5 48bd c327 aa3d 4bd6 adbb
000000a0: ec06 86bd 3459 8cbc b634 46be b554 20be
000000b0: ac5f 543d ef57 3ebe 366c fd3d 7f38 c03d
000000c0: e186 b1bd 7ab5 e0b8 7cfb 573d fd4e 81be
000000d0: 2c76 2ebe bb21 173e 7b4f 87ba 0dea 333e
000000e0: c611 bcbd a791 1a3d 8ca9 8fbd 553b 663d
000000f0: 9b80 bc3d da43 d3bd df76 ecbc 7b1f 083e
00000100: 357e f8bd 5e7a 6dbe 5e1b e93b 7b48 c8bc
00000110: fc08 a6bd 3d73 5f3d 8b52 093e 1c36 873d
00000120: 8795 b73d be80 273d 1fac 0fbe 2379 d93d
00000130: 77bb 103e 5a6f ca3b aaae 0ebe 3816 263d
00000140: 4674 e03d 059b 2cbe df24 303d 46e4 c9bd
00000150: b7d8 393d 7f8e 4c3b 9db4 5bbd 9e23 04be
00000160: 2549 8c3d 1b94 db3d 4536 7cbe df76 bcbd
00000170: 12d8 1c3e 22a2 6f3d 693f e73d 0a53 f5bd
00000180: 8879 c8bc 567f e43c 4b0a 81be 40d1 273e
00000190: 6bfd 073d 08f9 f03c 3140 60bc 507f 02be
000001a0: c397 e73c dfba a3bd 83d7 8a3c 231e f5bd
000001b0: e139 62bc e58c ac3d 98c9 5c3d 8f7c 3b3e
000001c0: 6b09 d33c 82d2 283b bbef bdbd 47ff 093e
000001d0: 2614 9bbd e0d5 b5bc acb3 e53d e670 69bd
000001e0: 6379 43be 753c 15be ba6f 593d 84aa b2bd
000001f0: 1fdb 04bd 56dd dbbc 5766 83bd 1ace 87bd
00000200: 626e b83d 4968 6abd 52eb e7bd b58d 143c
00000210: 8bf4 8ebe 5ee7 a9bd 733b 8dbe 3e6a 8cbd
00000220: bdd6 8ebe 972a 35be e6cc 213e af9f a03d
00000230: bdce 3d3e aef2 85bc 4d31 4fbc 3bb6 e2bc
00000240: e517 973c 58a2 71bd 384a 03be 21da 52bd
00000250: 663f b2bd a141 06be c725 123e dc88 ec3d
00000260: f325 07ba b6bc c33d 67f6 353e 07d5 d3bd
00000270: 7db0 0d3e d7d7 04be bc19 303e 7279 fcbc
00000280: fc26 623d e34d 6e3e d936 51bc ed07 053e
00000290: 8ce5 173d ad77 1b3e f141 793d d95f e7bd
000002a0: 23e1 0c3e c2ae 5f3d eceb da3c c2e7 41bc
000002b0: e2f3 573d 5d11 d93d bc8e 253e ebed 563d
000002c0: 6b2f d4bd 440c c73c be6a 37bd 1665 d73c
000002d0: a5ab b2bd 4b7a 00be 71f6 dc3d 2e6b 0f3d
000002e0: 488a 82be 3143 c13b 0e66 fa3d 9d07 11be
000002f0: c1e3 333d b454 22bd b39b b7bd 5771 21be
00000300: 21d3 28be 8ab7 3d3d 46bd a3bc 9ac5 713d
00000310: 3a61 bd3d 5921 d8bd 3242 65bd 2a61 a63d
00000320: 9502 3a3b ce4c ee3d 32b6 693e 8cdc 49bb
00000330: f61b ab3d 3c1e 163c 2bb7 5ebe 1d90 06be
00000340: 6245 8d3d d85f 783d 1409 eabc 50ca 883c
00000350: c25f f53c f3e8 693d e33c 95bd 30a4 673d
00000360: ff8d 983d 8175 26be bf9e 823e f5d4 fe3d
00000370: eabd 44bc 6ace 27be 8b88 843d ed3f 2a3d
00000380: 1c87 c7bc fd59 9dbd 4c35 8fbe 7e90 f23d
00000390: c6a4 c93c aef4 38bd 7e2b e6bd ad8e a73d
000003a0: ef6a 3e3d 9887 533d 5781 093e b804 8bbd
000003b0: 0bd3 0cbe 6cb2 cfbd c91b 7a3d a3ef 33be
000003c0: 2c33 03be 73c9 7bbd 7a65 85bd 90c2 5e3d
000003d0: e564 b13c 1ff9 70be 31b8 c0bc 7df5 943d
000003e0: 53d5 803d 7b22 40bd 8de6 b2bd c146 663d
000003f0: 1234 933d 9a6d dfbd bb07 d53d fe9b 14be

PrediccionTomates_Completo_1/Cerebro_LSTM_Apilado_1/lstm_9_1/while/lstm_cell_1/add_1/ReadVariableOp f4 [100]
0.07856836 0.056676853 -0.022956386 0.032545187 -0.01791238 -0.026824504 0.1567763 -0.03035522
0.07424493 -0.031980425 -0.02614197 0.05760594 -0.04942711 -0.033021018 0.012162134 0.034087576
0.066682726 -0.01670252 0.038438868 -0.02331637 0.050227623 -0.030182106 0.034722514 0.061217245
0.074168205 1.1050928 1.0697056 0.9750438 1.0359738 0.97940814 0.97505414 1.1256943
0.9796515 1.0929147 0.9660979 0.98106015 1.0736519 0.9704609 0.9643043 1.0119209
1.0434992 1.071129 0.9911215 1.0362018 0.97715807 1.0500817 0.97624725 0.9726594
1.0626446 1.0846086 0.11132259 0.087284215 -0.020803187 0.07651123 -0.024925483 -0.03206107
0.044990633 -0.01733868 0.11469889 -0.038118035 -0.03511136 0.095176764 -0.043545287 -0.036016807
0.05552664 0.060233112 0.06719862 -0.033580966 0.06402 -0.030760981 0.07987833 -0.037456587
0.062510885 0.059123714 0.07341091 0.082387514 0.04890535 -0.022649143 0.038083114 -0.017911164
-0.026948966 0.15746814 -0.029227179 0.067992866 -0.0318957 -0.026274994 0.06026769 -0.04867137
-0.033434372 0.0172907 0.039080154 0.0646809 -0.016893633 0.037617873 -0.022627432 0.036256243
-0.03042929 0.02817367 0.056564063 0.08205705
00000000: 73e8 a03d fd25 683d 080f bcbc 1a4e 053d
00000010: fcbc 92bc 10bf dbbc f789 203e 83ab f8bc
00000020: ba0d 983d e8fd 02bd af27 d6bc 35f4 6b3d
00000030: 1574 4abd 0c41 07bd b043 473c 6a9f 0b3d
00000040: f490 883d b9d3 88bc 1372 1d3d f901 bfbc
00000050: 7bbb 4d3d 7740 f7bc 3239 0e3d efbe 7a3d
00000060: 80e5 973d ae73 8d3f 1dec 883f 789c 793f
00000070: ca9a 843f 7eba 7a3f 269d 793f c016 903f
00000080: 71ca 7a3f a1e4 8b3f 3152 773f c226 7b3f
00000090: 6d6d 893f 2070 783f a6dc 763f a086 813f
000000a0: 6291 853f c11a 893f 23ba 7d3f 43a2 843f
000000b0: 0827 7a3f 1469 863f 57eb 793f 3500 793f
000000c0: bd04 883f 74d4 8a3f 19fd e33d 11c2 b23d
000000d0: 726b aabc ebb1 9c3d 8730 ccbc 7852 03bd
000000e0: 1948 383d d909 8ebc 40e7 ea3d a821 1cbd
000000f0: eed0 0fbd 09ec c23d 8b5c 32bd 5c86 13bd
00000100: e76f 633d ffb6 763d 6e9f 893d 328c 09bd
00000110: eb1c 833d 74fe fbbc 4097 a33d 146c 19bd
00000120: b505 803d b52b 723d 7658 963d c9ba a83d
00000130: fa50 483d b28a b9bc 0afd 1b3d 6fba 92bc
00000140: 14c4 dcbc 543f 213e d66d efbc d83f 8b3d
00000150: 11a5 02bd a83e d7bc 41db 763d a15b 47bd
00000160: 7bf2 08bd 3aa5 8d3c 8312 203d 6b77 843d
00000170: 8464 8abc 3315 1a3d 2a5d b9bc 6d81 143d
00000180: d946 f9bc 78cc e63c b8af 673d 870d a83d
